input_chain18_singlet_np4.in.out.model.pth (torch, 3848 bytes, 3 tensors)

hidden1.weight f4 [18, 18]
000000 84 0f 61 3e 20 c9 64 bc bb 06 28 bf 93 ab f2 be
       0.21978575 -0.013963968 -0.6563527 -0.47396526
000010 b9 11 2f bd c8 d1 92 be ac 06 53 3e b9 9a 26 3f
       -0.04274151 -0.28675675 0.20608014 0.6507984
000020 f4 a4 36 3e 66 e7 63 3e 3f 6d 72 3e fd 89 c0 3c
       0.17836362 0.2225624 0.23674487 0.023503298
000030 11 e0 6f be 91 98 2e bf 4c 0a b5 be 62 18 b9 be
       -0.23425318 -0.6820155 -0.35359418 -0.36151415
000040 33 ac ba 3e c4 6c bc 3e be cb 71 3e 93 83 6f 3e
       0.36459503 0.36801732 0.23612878 0.23390035
000050 99 1c a8 3e b8 48 e5 3e cb 50 10 3f ad 9b 0a 3f
       0.32834318 0.44782043 0.5637328 0.5414379
000060 af d6 6f bf 07 1d 5b bf f8 0c 55 bf 7c 17 10 bf
       -0.93686956 -0.8559117 -0.83222914 -0.56285834
000070 28 23 1e be a1 3b 97 be e8 0d af 3d 22 b0 46 3d
       -0.15443099 -0.2953768 0.08547574 0.048507817
000080 32 21 3c 3e e1 23 e9 3d 27 dc d2 3e df 28 b5 3e
       0.18372038 0.113837965 0.41183588 0.35382745
000090 4d 72 a2 be 94 ca ad be d2 ff eb bd 7c 42 02 3d
       -0.3172783 -0.33943617 -0.11523403 0.031801686
0000a0 de 6a 17 3e b1 78 de 3e a5 6e f8 3e 17 ac 01 3f
       0.1478686 0.43451455 0.48521915 0.50653213
0000b0 4d 74 04 bf e8 5d 10 bf 0e 6a a5 3e 3f df d1 3e
       -0.5173996 -0.5639329 0.32307476 0.40990636
0000c0 44 9e 92 3e 36 f3 a7 3d 27 16 ed bd 15 72 05 be
       0.28636372 0.08200686 -0.11576491 -0.130318
0000d0 3c 21 ca be 8e d1 ba be b8 fd 41 be 8c 57 60 be
       -0.3947848 -0.36488003 -0.18944442 -0.21908396
0000e0 67 9d af bd 5a bd 5c 3b 10 78 24 3e 1b e4 7e 3e
       -0.08574944 0.0033682198 0.16061425 0.24891703
0000f0 00 b3 bf 3e d0 34 24 bf a7 f9 1e bf 10 06 56 3e
       0.37441254 -0.64143085 -0.6209969 0.2090075
000100 68 2b 87 3e 40 01 12 3e f1 ee a1 be d8 9b c2 be
       0.26400304 0.1425829 -0.3162761 -0.38009524
000110 01 d6 99 be 41 81 83 be 03 48 c8 bd bb 54 b9 bd
       -0.30046085 -0.2568455 -0.0977936 -0.09049364
000120 49 ad 89 be ec f6 bd 3e e0 10 55 3f c0 6a 64 be
       -0.2689002 0.3710245 0.83228874 -0.22306347
000130 89 1b 7a be 13 68 00 be d3 14 28 3e 58 d5 57 3e
       -0.24424566 -0.12539701 0.16414194 0.21077478
000140 cb 8e a9 3e 4d 1e 63 3e 36 0d 99 3d 19 04 d4 3d
       0.33116755 0.22179528 0.07473223 0.10352344
000150 02 ff 84 be 87 b0 aa be a0 40 c1 be 94 3c 59 be
       -0.25975806 -0.33337805 -0.37744617 -0.21214515
000160 8a 34 95 bd ae 18 92 bd 35 84 44 bc 52 f5 dd 3c
       -0.07285412 -0.071336135 -0.011994411 0.027094517
000170 8d a9 a0 be a1 67 93 bd 85 4f 8a bd 5e 46 68 3d
       -0.31379357 -0.071975 -0.067534484 0.056707732
000180 af 3f a1 be 1e e3 f8 bc 1c 0d f6 bd 97 f8 5b be
       -0.314939 -0.030381735 -0.12014219 -0.21481548
000190 18 2d 96 be 96 92 4c 3f ed 76 ef 3d 31 a7 e8 be
       -0.2933128 0.7991117 0.11692605 -0.45440057
0001a0 ea 49 ae be 80 65 90 be 44 a1 2f be fe 2b 8c be
       -0.34040767 -0.28202438 -0.17151362 -0.27377313
0001b0 5b 3f cc 3d fb 1e 8f 3e f3 d3 9e bd 58 87 d5 3d
       0.099730216 0.27953324 -0.0775527 0.104262054
0001c0 dd fb 9e be 2f 1d 08 3e 00 8d d7 be 80 c1 2f be
       -0.3105153 0.13292383 -0.42099762 -0.17163658
0001d0 e9 55 96 bd 15 09 dd 3d 15 f9 00 be c5 ec 5c 3e
       -0.07340605 0.10792748 -0.12595017 0.21574695
0001e0 8b ec 2a be 64 e0 0f 3e db ab 74 be 0b 38 71 3f
       -0.16691796 0.14050442 -0.23893683 0.9422614
0001f0 5e b6 a0 3e 37 9f 1d 3f 72 4e 1a bf 60 ca 20 bf
       0.31389135 0.6157107 -0.6027595 -0.628088
000200 cf 83 fb be ae 3a 88 be 17 8f cc bd 17 36 57 be
       -0.49124 -0.2660727 -0.0998823 -0.21016727
000210 6a d1 a9 bd 52 e5 8f 3e c7 9d 37 3e b5 85 6c 3e
       -0.08291896 0.28104645 0.17931281 0.2309788
000220 c6 46 af 3d fa 45 8b be 53 54 01 bf d7 e2 6e be
       0.08558421 -0.27201825 -0.50519294 -0.2332872
000230 ff 36 1f 3f 90 45 4d 3f 73 39 4d be 06 18 9b be
       0.6219329 0.8018427 -0.20041446 -0.30291766
000240 17 e2 d2 3d 7a da 97 3d a3 e9 45 be e4 d6 a6 3e
       0.102970295 0.07414718 -0.19327407 0.32585824
000250 71 eb ca 3d 76 01 d5 3e e5 dd 8c 3e f9 f9 e3 3e
       0.09908188 0.41602677 0.27513042 0.44526652
000260 00 a2 80 be 78 e2 c0 be ab 68 59 3d e6 fe 14 bd
       -0.25123596 -0.37672782 0.053078335 -0.036375903
000270 c7 f7 fc 3e 3f 7d bc be b3 0d 94 3e 5b 9c b4 bc
       0.4940779 -0.36814305 0.28916702 -0.022047212
000280 c3 1f 99 be 6f 5a 4f be df ee 23 3e c6 d9 46 be
       -0.29907045 -0.20249341 0.16009091 -0.19419011
000290 7d b5 e0 3e 7c ca 5e be 3d 65 25 3e 9b c6 5b be
       0.43888465 -0.21756929 0.161519 -0.2146248
0002a0 c6 7f 7e bc a2 73 f9 bd c2 48 cf 3d 21 1d cc be
       -0.015533393 -0.12180258 0.10121299 -0.39865974
0002b0 82 97 24 3e 5f 98 bb be 61 71 37 3e 74 7d 91 be
       0.1607342 -0.36639687 0.17914344 -0.28416026
0002c0 c3 21 cd be ef c9 19 3e 6d 7c f2 3d 18 f2 b2 be
       -0.4006482 0.15018438 0.118401386 -0.34950328
0002d0 c8 19 25 3f 2b 71 29 3f d1 79 6a 3f aa 48 6c 3f
       0.64492464 0.66188306 0.9159213 0.92298377
0002e0 4e cb 8b be c9 ba 0b bf 0c 51 23 be 5e a5 6b bd
       -0.27303547 -0.54581887 -0.15948886 -0.057530753
0002f0 ee f6 58 be 10 65 d5 be ac 37 59 be ca f7 bc bd
       -0.21187946 -0.41678667 -0.21212643 -0.092269495
000300 af 2e 9c 3d 99 e1 b2 3d a4 b5 dc 3e 51 3e c3 3e
       0.07626092 0.087344356 0.4310733 0.3813348
000310 be 92 24 3f c0 1a 11 3f b3 d2 eb bd 21 20 cc bd
       0.6428641 0.5668144 -0.11514797 -0.099670656
000320 61 9a 26 be f2 4a 4d be 74 55 d3 be 1e e5 d8 be
       -0.16269828 -0.2004812 -0.41276133 -0.42362303
000330 2c fe 01 bf 59 70 7e be a5 ed f4 3e 8d 3f 1c 3f
       -0.5077846 -0.24847545 0.47837558 0.6103447
000340 4e dc 06 3f f2 1a d2 3e ef 45 86 3b fc 45 6d bd
       0.5267991 0.41036183 0.004097692 -0.05792807
000350 25 99 b8 bd dd bc 0e bd 1a e7 e0 3d d6 1a 05 3e
       -0.09013585 -0.034848083 0.10981579 0.12998518
000360 01 d5 2a be ce 11 51 be 52 25 ae bc 18 34 23 3e
       -0.16682817 -0.20416948 -0.02125803 0.15937841
000370 f1 12 ba 3e ee 02 8d 3e 65 94 90 3e 04 14 59 3e
       0.36342576 0.27541298 0.28238216 0.21199042
000380 56 f2 85 3f 96 4e e6 bc 57 50 19 be 38 12 8a bd
       1.046458 -0.028113645 -0.14972053 -0.06741756
000390 b6 54 76 3e 2d 7f 8b 3e 26 75 aa 3d 38 61 a7 3c
       0.24055752 0.27245465 0.083231255 0.0204321
0003a0 f3 78 66 ba c4 73 18 3b 8a b9 df 3e 91 83 e5 3e
       -0.00087918265 0.002326236 0.43696243 0.4482694
0003b0 0f 57 b0 3d af e7 c9 bd c6 d4 01 be 21 aa 32 3f
       0.08610355 -0.09858643 -0.12678823 0.69790846
0003c0 64 6a f5 3e da a9 99 3e 2e 12 5f be 1f 23 57 be
       0.47932732 0.300124 -0.21784279 -0.21009491
0003d0 0d a2 7b bf f9 47 7e bf 46 e0 43 bf 59 8e 1e bf
       -0.98294145 -0.9932857 -0.7651409 -0.61935955
0003e0 44 53 57 be 38 7e 69 be 39 b8 91 3e ca 5e 68 3e
       -0.21027857 -0.22802055 0.28460863 0.22692409
0003f0 9d 71 94 be 5f e8 8e be 87 9d 6e 3c fc ba 92 3e
       -0.2899293 -0.2791166 0.014563925 0.28658283

hidden1.bias f4 [18]
000000 7b d1 60 3e 07 ae ed 3b 3f 79 ae 3c f7 3b a2 ba
       0.2195491 0.0072534117 0.021298049 -0.001237749
000010 ed df 53 3c 6f 9e 30 3d 3a 73 a8 3c 49 59 e0 3c
       0.012931806 0.043119844 0.020562757 0.027386324
000020 2d 9d 2e 3d 8e 4c 83 bd de 48 77 3c 97 4e 53 bd
       0.042630363 -0.06411086 0.0150930565 -0.05158862
000030 87 65 9d 3e b4 64 82 bd 9c 1f 0b 3e ca 13 6b be
       0.30741522 -0.06366864 0.13586277 -0.22956768
000040 f3 f5 1e be cf 60 6a bc
       -0.1552351 -0.0143053075

output.weight f4 [1, 18]
000000 93 7f 47 3e 41 67 cb 3e ae aa d3 3e c6 d7 a4 3e
       0.1948226 0.39727214 0.41341156 0.32195872
000010 cc 9f 36 3e 5e 3b 42 3e ea 96 35 be 53 61 7f 3e
       0.17834395 0.1896796 -0.1773335 0.2493947
000020 cf 3b ff bd 41 21 91 bd 54 41 c1 3e 89 7d 12 3f
       -0.124625795 -0.07086421 0.37745154 0.572228
000030 60 d9 01 3f 45 78 b2 3e 46 f4 99 3e 2f 66 90 bd
       0.5072231 0.34857383 0.30069178 -0.0705074
000040 60 24 6e be f4 f1 ee 3e
       -0.23256063 0.4666897
